{"class_name": "Model", "config": {"name": "model_1", "layers": [{"name": "input_2", "class_name": "InputLayer", "config": {"batch_input_shape": [null, 200], "dtype": "int32", "sparse": false, "name": "input_2"}, "inbound_nodes": []}, {"name": "embedding_1", "class_name": "Embedding", "config": {"name": "embedding_1", "trainable": false, "batch_input_shape": [null, 200], "dtype": "float32", "input_dim": 30238, "output_dim": 300, "embeddings_initializer": {"class_name": "RandomUniform", "config": {"minval": -0.05, "maxval": 0.05, "seed": null}}, "embeddings_regularizer": null, "activity_regularizer": null, "embeddings_constraint": null, "mask_zero": false, "input_length": 200}, "inbound_nodes": [[["input_1", 0, 0, {}]], [["input_2", 0, 0, {}]]]}, {"name": "SharedLSTM1", "class_name": "Bidirectional", "config": {"name": "SharedLSTM1", "trainable": true, "layer": {"class_name": "CuDNNLSTM", "config": {"name": "cu_dnnlstm_1", "trainable": true, "return_sequences": true, "return_state": false, "go_backwards": false, "stateful": false, "units": 96, "kernel_initializer": {"class_name": "VarianceScaling", "config": {"scale": 2.0, "mode": "fan_in", "distribution": "normal", "seed": 42}}, "recurrent_initializer": {"class_name": "Orthogonal", "config": {"gain": 1.0, "seed": null}}, "bias_initializer": {"class_name": "Zeros", "config": {}}, "unit_forget_bias": true, "kernel_regularizer": null, "recurrent_regularizer": null, "bias_regularizer": null, "activity_regularizer": null, "kernel_constraint": null, "recurrent_constraint": null, "bias_constraint": null}}, "merge_mode": "concat"}, "inbound_nodes": [[["embedding_1", 0, 0, {}]], [["embedding_1", 1, 0, {}]]]}, {"name": "input_1", "class_name": "InputLayer", "config": {"batch_input_shape": [null, 200], "dtype": "int32", "sparse": false, "name": "input_1"}, "inbound_nodes": []}, {"name": "batch_normalization_2", "class_name": "BatchNormalization", "config": {"name": "batch_normalization_2", "trainable": true, "axis": -1, "momentum": 0.99, "epsilon": 0.001, "center": true, "scale": true, "beta_initializer": {"class_name": "Zeros", "config": {}}, "gamma_initializer": {"class_name": "Ones", "config": {}}, "moving_mean_initializer": {"class_name": "Zeros", "config": {}}, "moving_variance_initializer": {"class_name": "Ones", "config": {}}, "beta_regularizer": null, "gamma_regularizer": null, "beta_constraint": null, "gamma_constraint": null}, "inbound_nodes": [[["SharedLSTM1", 1, 0, {}]]]}, {"name": "SharedLSTM2", "class_name": "Bidirectional", "config": {"name": "SharedLSTM2", "trainable": true, "layer": {"class_name": "CuDNNLSTM", "config": {"name": "cu_dnnlstm_2", "trainable": true, "return_sequences": true, "return_state": false, "go_backwards": false, "stateful": false, "units": 64, "kernel_initializer": {"class_name": "VarianceScaling", "config": {"scale": 2.0, "mode": "fan_in", "distribution": "normal", "seed": 42}}, "recurrent_initializer": {"class_name": "Orthogonal", "config": {"gain": 1.0, "seed": null}}, "bias_initializer": {"class_name": "Zeros", "config": {}}, "unit_forget_bias": true, "kernel_regularizer": null, "recurrent_regularizer": null, "bias_regularizer": null, "activity_regularizer": null, "kernel_constraint": null, "recurrent_constraint": null, "bias_constraint": null}}, "merge_mode": "concat"}, "inbound_nodes": [[["batch_normalization_1", 0, 0, {}]], [["batch_normalization_2", 0, 0, {}]]]}, {"name": "max_pool_q", "class_name": "GlobalMaxPooling1D", "config": {"name": "max_pool_q", "trainable": true, "data_format": "channels_last"}, "inbound_nodes": [[["SharedLSTM2", 1, 0, {}]]]}, {"name": "batch_normalization_1", "class_name": "BatchNormalization", "config": {"name": "batch_normalization_1", "trainable": true, "axis": -1, "momentum": 0.99, "epsilon": 0.001, "center": true, "scale": true, "beta_initializer": {"class_name": "Zeros", "config": {}}, "gamma_initializer": {"class_name": "Ones", "config": {}}, "moving_mean_initializer": {"class_name": "Zeros", "config": {}}, "moving_variance_initializer": {"class_name": "Ones", "config": {}}, "beta_regularizer": null, "gamma_regularizer": null, "beta_constraint": null, "gamma_constraint": null}, "inbound_nodes": [[["SharedLSTM1", 0, 0, {}]]]}, {"name": "W_qm", "class_name": "Dense", "config": {"name": "W_qm", "trainable": true, "units": 128, "activation": "linear", "use_bias": true, "kernel_initializer": {"class_name": "VarianceScaling", "config": {"scale": 1.0, "mode": "fan_avg", "distribution": "uniform", "seed": null}}, "bias_initializer": {"class_name": "Zeros", "config": {}}, "kernel_regularizer": null, "bias_regularizer": null, "activity_regularizer": null, "kernel_constraint": null, "bias_constraint": null}, "inbound_nodes": [[["max_pool_q", 0, 0, {}]]]}, {"name": "repeat_vector_1", "class_name": "RepeatVector", "config": {"name": "repeat_vector_1", "trainable": true, "n": 200}, "inbound_nodes": [[["W_qm", 0, 0, {}]]]}, {"name": "time_distributed_1", "class_name": "TimeDistributed", "config": {"name": "time_distributed_1", "trainable": true, "layer": {"class_name": "Dense", "config": {"name": "W_am", "trainable": true, "units": 128, "activation": "linear", "use_bias": true, "kernel_initializer": {"class_name": "VarianceScaling", "config": {"scale": 1.0, "mode": "fan_avg", "distribution": "uniform", "seed": null}}, "bias_initializer": {"class_name": "Zeros", "config": {}}, "kernel_regularizer": null, "bias_regularizer": null, "activity_regularizer": null, "kernel_constraint": null, "bias_constraint": null}}}, "inbound_nodes": [[["SharedLSTM2", 0, 0, {}]]]}, {"name": "add_1", "class_name": "Add", "config": {"name": "add_1", "trainable": true}, "inbound_nodes": [[["repeat_vector_1", 0, 0, {}], ["time_distributed_1", 0, 0, {}]]]}, {"name": "activation_1", "class_name": "Activation", "config": {"name": "activation_1", "trainable": true, "activation": "tanh"}, "inbound_nodes": [[["add_1", 0, 0, {}]]]}, {"name": "time_distributed_2", "class_name": "TimeDistributed", "config": {"name": "time_distributed_2", "trainable": true, "layer": {"class_name": "Dense", "config": {"name": "w_ms", "trainable": true, "units": 1, "activation": "linear", "use_bias": true, "kernel_initializer": {"class_name": "VarianceScaling", "config": {"scale": 1.0, "mode": "fan_avg", "distribution": "uniform", "seed": null}}, "bias_initializer": {"class_name": "Zeros", "config": {}}, "kernel_regularizer": null, "bias_regularizer": null, "activity_regularizer": null, "kernel_constraint": null, "bias_constraint": null}}}, "inbound_nodes": [[["activation_1", 0, 0, {}]]]}, {"name": "attention_scores", "class_name": "Softmax", "config": {"name": "attention_scores", "trainable": true, "axis": 1}, "inbound_nodes": [[["time_distributed_2", 0, 0, {}]]]}, {"name": "multiply_1", "class_name": "Multiply", "config": {"name": "multiply_1", "trainable": true}, "inbound_nodes": [[["SharedLSTM2", 0, 0, {}], ["attention_scores", 0, 0, {}]]]}, {"name": "max_pool_attended_a", "class_name": "GlobalMaxPooling1D", "config": {"name": "max_pool_attended_a", "trainable": true, "data_format": "channels_last"}, "inbound_nodes": [[["multiply_1", 0, 0, {}]]]}, {"name": "dot_1", "class_name": "Dot", "config": {"name": "dot_1", "trainable": true, "axes": -1, "normalize": true}, "inbound_nodes": [[["max_pool_q", 0, 0, {}], ["max_pool_attended_a", 0, 0, {}]]]}], "input_layers": [["input_1", 0, 0], ["input_2", 0, 0]], "output_layers": [["dot_1", 0, 0]]}, "keras_version": "2.2.4", "backend": "tensorflow"}